checkpoints/ava_vit_b_16_linear.pth (torch, 3047 bytes, 1 tensors)

weight f4 [1, 512]
000000 86 0a de bf aa 48 cd bf 32 be 89 3f 68 6a 93 bf
       -1.7346961 -1.60378 1.0761168 -1.1516848
000010 91 65 70 bf e6 12 0a c0 ed 8b 83 3f 40 65 dd 3e
       -0.9390498 -2.1574035 1.0277077 0.4324131
000020 c0 ff b4 3f dc 26 91 bf 10 03 2f 3e 9a 90 ef bd
       1.4140549 -1.1339984 0.17091012 -0.116975024
000030 53 29 da bf 6e 29 0e 3f 94 0b ca 3e 90 d1 f9 bd
       -1.7043861 0.55531967 0.39461958 -0.12198174
000040 b6 52 5c bf 50 41 00 bf ce 12 3f be 4a cb 98 bf
       -0.86063707 -0.5009966 -0.18659517 -1.1937039
000050 a4 67 aa bf 96 42 2c 3e 80 fd 95 be 16 2d a1 be
       -1.3312879 0.16822276 -0.29294968 -0.3147971
000060 38 97 df be 9e d2 ca bf 28 c0 b3 3e a8 2f 82 3f
       -0.43670058 -1.5845525 0.3510754 1.0170794
000070 50 96 3d bf a4 54 8e bf 78 83 ae bd 3f cf 10 40
       -0.74057484 -1.111958 -0.085211694 2.2626493
000080 e4 1f 8e bf f0 56 64 3f 1a ed 31 3e d6 30 fe be
       -1.1103482 0.89195156 0.17375603 -0.49646634
000090 9b 29 a9 bf 3e fa cf 3f bf d7 97 bf 2c ef b1 bf
       -1.3215822 1.6248243 -1.1862715 -1.3901114
0000a0 6e 35 66 3f e9 41 f1 be b2 a3 8a be 04 56 bc 3e
       0.8992528 -0.47120598 -0.27078015 0.36784375
0000b0 1c d0 d5 be ea 70 9c be 61 58 29 3f 81 c4 a0 bf
       -0.41760337 -0.30554897 0.6615048 -1.2559968
0000c0 64 09 b9 bf 2c 6d af 3f d2 8d 5a 3f d2 1c 4f 3f
       -1.4455991 1.3705192 0.8537265 0.8090335
0000d0 7a ec 66 be 1f 77 2a be 4e b6 31 bf b2 21 c1 3d
       -0.22551146 -0.16647004 -0.694188 0.09430255
0000e0 7a 14 b6 be 35 63 47 3e 1f b5 46 3f 50 71 28 bf
       -0.35562497 0.19471438 0.7762012 -0.657979
0000f0 02 1b 8e 3e 97 5a 1f 3e 10 60 55 bd b6 8a ef 3e
       0.2775498 0.15561901 -0.052093565 0.46785516
000100 cc bb 0d bf a6 3a d7 3e 22 96 9a be 97 fc a0 3f
       -0.5536468 0.42036933 -0.30192667 1.2577084
000110 aa e0 8d 3f 90 dd 48 bd 90 9a 5b bd 41 94 2d c0
       1.1084187 -0.049039423 -0.0536142 -2.7121737
000120 98 98 78 3e fb 3a a6 3f 7c 8d 9c 3e cc 27 a0 bd
       0.2427696 1.298675 0.30576694 -0.07820091
000130 98 57 40 3f 0b bd f7 3f ac 6c 1c 3f c0 2b 6f bd
       0.7513366 1.9354566 0.6110332 -0.058391333
000140 48 8c 34 3f 7e bd 1a bf c8 e8 00 bf 72 9e 19 bf
       0.7052655 -0.6044539 -0.50355196 -0.60007393
000150 2b ff d3 3e c3 13 b8 be 43 5c a8 bf 48 00 69 3f
       0.41405615 -0.35952577 -1.3153156 0.91016054
000160 47 c5 cd be 58 c0 93 bf 40 65 94 bd 38 25 94 3c
       -0.40189573 -1.1543074 -0.072458744 0.018084154
000170 7b f9 83 3e 8e c9 6a 3f 3a 84 ae bf 94 00 38 3f
       0.25776276 0.917138 -1.3634102 0.7187588
000180 6a 09 20 c1 f8 84 a0 3c 4d 40 a1 be 9c ce c4 bf
       -10.002298 0.019594654 -0.3149437 -1.5375552
000190 ef 6e 87 bf fb b9 5b bf 77 bc 84 bf 38 4d 2d bd
       -1.0580729 -0.8583066 -1.0370015 -0.04230997
0001a0 82 97 d2 3f 0f e2 9d 3f 43 82 24 bf 80 bf 7f 3e
       1.6452487 1.2334613 -0.64261264 0.24975395
0001b0 7d 7b 78 3e 82 1a b9 3e a7 d3 28 3e e0 99 a4 3d
       0.24265857 0.36153036 0.16486989 0.08037162
0001c0 6d b0 c0 3f c0 a9 7a be 30 32 14 bf fb b1 05 c0
       1.5053841 -0.24478817 -0.5788908 -2.088988
0001d0 df de 3a bf 41 9f da bf c3 d2 16 c0 ec 75 3b 3d
       -0.72996324 -1.707985 -2.3566139 0.045766756
0001e0 7e 8d 21 bf 1b f1 15 3f ac 93 56 bf 62 4a eb be
       -0.63106525 0.5857102 -0.8381908 -0.45955187
0001f0 a8 b1 ab 3e 08 6a 85 bf 40 59 30 c0 28 30 2f 3e
       0.33533978 -1.0422983 -2.7554474 0.17108214
000200 42 3d 39 3f ea 45 1c bf 48 71 87 3f 53 85 8f 3e
       0.72359097 -0.6104418 1.0581446 0.28031406
000210 b0 f4 4e be a0 21 c8 be 0d b9 c3 3e f0 6b bd 3f
       -0.20210528 -0.39088154 0.3822712 1.4798565
000220 54 88 0f 3e 5d a5 97 3f 5d fc 8d 3e 2f 3a 13 bf
       0.14016849 1.184734 0.277316 -0.57510656
000230 28 a9 cd 3f fa 54 05 c0 90 9d 87 3d 3c af d1 bf
       1.6067247 -2.0833116 0.066218495 -1.6381602
000240 92 95 92 bd 33 24 90 bf fc fe c7 3f 66 1b 38 bf
       -0.071574345 -1.1261047 1.562469 -0.71916807
000250 15 84 50 bf a4 14 d5 bf 33 c9 8d be 9b 7a 6c 3e
       -0.8145154 -1.6646924 -0.27692565 0.23093645
000260 e1 7b 86 3f 09 28 8a 3f f3 25 ae be df 4d 47 bf
       1.0506555 1.0793468 -0.34013328 -0.77853197
000270 32 b9 8d be 1b 5f c8 bf 7c 19 9a 3d ea bb 33 3e
       -0.27680355 -1.5654024 0.07524392 0.17552152
000280 1a 68 ef be 62 d7 9c 3e 24 a2 3a 3f 7f b4 fc 3e
       -0.4675911 0.30633074 0.72903657 0.49356458
000290 74 5c 51 3f 2e 32 22 bf f9 6d 0e 40 4a bb 08 be
       0.817817 -0.6335782 2.2254622 -0.13352695
0002a0 60 53 6e 3e b0 c5 ec 3d cf 7f b1 be b8 6a 0c 40
       0.23273993 0.115611434 -0.34667823 2.1940136
0002b0 80 ad 8f 39 6d fe b4 bf 1a b0 e1 3f ec db 73 3e
       0.00027404353 -1.4140145 1.7631867 0.23814362
0002c0 a8 68 7f be 2c 29 17 bf 5f 9e 1e bf 9c 1f bb bf
       -0.24942267 -0.590472 -0.61960405 -1.4619021
0002d0 42 dc 02 bf a6 af d7 be 3a 0e f3 3f 08 a7 f1 bd
       -0.51117337 -0.42126197 1.8988717 -0.11799437
0002e0 b0 bf 85 3e b0 9e fb bb 08 a6 81 3f ee 94 66 3f
       0.26122808 -0.007678829 1.0128794 0.90071
0002f0 40 e6 44 bd 5e 12 8f 3f 15 c3 41 bf 0e 16 3c 3f
       -0.048071146 1.117748 -0.75688297 0.7347115
000300 5c f6 9b bf a7 e4 dc 3f 12 3a eb 3f 13 18 9e 3d
       -1.2184558 1.7257279 1.8377097 0.077194355
000310 06 80 9b be 33 dd 50 3f 8a d5 95 3e 61 34 31 c0
       -0.30371112 0.81587523 0.2926448 -2.768822
000320 8b f6 cc 3e a7 07 c9 3e 3c 37 fd 3f 48 f9 41 be
       0.40031847 0.3926365 1.9782481 -0.1894275
000330 aa a2 0e bf ea ab e3 bf 51 a8 3f 3f 39 ba ca 3f
       -0.55716956 -1.7786839 0.74866205 1.5838081
000340 36 2f bf be 58 fe 56 3e c0 5a 82 bc 69 a6 14 c0
       -0.37340707 0.20995462 -0.015912414 -2.3226569
000350 73 2a c5 3f a8 95 24 3f b0 67 1c be 4e fa 11 3f
       1.540358 0.6429086 -0.15273929 0.5702256
000360 e8 3a 9b bd b7 ff 3e 3f 12 83 2d 3e c8 c6 84 3e
       -0.07579595 0.7460894 0.1694453 0.25932908
000370 c3 63 93 3e e8 c1 94 3e 83 f8 a5 be 5c 3a 36 3e
       0.2878705 0.2905419 -0.32416162 0.177957
000380 c6 91 05 bf 14 11 21 3e 67 6a a8 3e 06 33 4b 3f
       -0.5217556 0.15729171 0.3289368 0.7937473
000390 7f 82 b5 be f5 77 d7 3f cc 78 32 3f 78 7e 9f bf
       -0.35451123 1.6833483 0.6971557 -1.246047
0003a0 26 df 03 40 c4 4f 58 bf 77 1a b4 be 64 2e cc bf
       2.060495 -0.8449671 -0.3517644 -1.5951657
0003b0 8d af 83 3f a0 4e cf 3e 60 a9 94 bd 8c fa 86 3e
       1.0287949 0.40489674 -0.07258868 0.26363027
0003c0 7c eb 1c c0 95 ab b6 3e 92 a0 66 bf 69 d4 d1 3e
       -2.4518728 0.35677782 -0.9008876 0.4098237
0003d0 b0 b3 a4 be e6 16 e8 be d8 f8 ee bf 8e a3 fc be
       -0.3216834 -0.4532997 -1.8669691 -0.49343532
0003e0 d2 b2 4f 3e 60 bd 24 bf ba 4c bb 3f bc f5 45 3f
       0.20283058 -0.64351463 1.463279 0.77328086
0003f0 28 89 ca bf 54 d8 76 3f 11 da fa bf eb 09 ff 3e
       -1.5823107 0.9642384 -1.9597799 0.49812254
